models/dqn_model.pth (torch, 100188 bytes, 6 tensors)

model.0.weight f4 [128, 10]
000000 d7 ce 49 3e 05 ef 97 bd f5 91 3d bd 25 60 13 be
       0.1970781 -0.07418636 -0.046281774 -0.14392145
000010 22 50 8f 3e 05 7d 50 3d 3e 10 82 be 3f 4c 81 bd
       0.27990824 0.050900478 -0.25403017 -0.06313371
000020 e2 c7 8e bd 74 85 64 be 18 dd 37 be 67 06 80 3e
       -0.06971718 -0.22316533 -0.17955434 0.25004885
000030 1c 1f 5e bd 2f fd c1 be ac b1 d0 bd 2c 33 b1 3d
       -0.054228887 -0.37888476 -0.10190138 0.086523384
000040 bb aa ca be 3d c1 63 3e 08 63 35 be 62 b8 cd 3d
       -0.39583382 0.22241683 -0.17713559 0.10044934
000050 bf f4 2f 3c 18 93 1c 3e 07 55 50 be 4d 7a 6e bc
       0.010739504 0.15290487 -0.20344935 -0.014555526
000060 7a d9 92 be 6c b9 a3 bd 51 17 9d bb aa 5c 82 3d
       -0.28681546 -0.07994351 -0.0047940393 0.063653305
000070 62 4d 02 be 37 01 04 be 45 bf 4f 3e fa 1c 7f bd
       -0.12724832 -0.12891088 0.20287807 -0.062283494
000080 71 91 48 bd 02 99 cb be 04 23 59 be f7 99 84 be
       -0.04896683 -0.39765173 -0.21204764 -0.25898716
000090 8f 28 d0 3e 84 b8 ed 3d 68 c5 f5 3e d8 52 4b 3d
       0.40655944 0.11607459 0.48002172 0.049639553
0000a0 9a 84 7d be 53 f7 aa bd 92 8a f5 3d 58 02 99 be
       -0.24757615 -0.083479546 0.11989321 -0.298846
0000b0 f1 04 b1 bc d3 d4 8a be 49 0a 3f 3e 5a be 0e 3e
       -0.021608802 -0.27115497 0.18656267 0.13939801
0000c0 59 50 27 be f5 73 7b 3c d9 37 20 3d ca 94 83 be
       -0.16339244 0.0153474705 0.03911576 -0.25699455
0000d0 7a d5 2b be 08 1a 43 be 5c 18 16 3e 9e f6 91 bd
       -0.16780654 -0.19052899 0.1465773 -0.071271166
0000e0 26 da 85 be 48 82 05 be b6 3d a0 be 75 cd 24 3e
       -0.26142997 -0.1303798 -0.31297082 0.16094
0000f0 59 9b 8b 3e 6f c2 9e be ad 57 c3 3d a1 6a a4 3c
       0.27266958 -0.31007716 0.09538207 0.020070376
000100 b2 dc 61 3e 3e c2 70 3d be a9 91 be bf 8d b0 bd
       0.22056845 0.058778994 -0.28449816 -0.08620786
000110 37 d6 64 be ff b7 2c 3e bb bc 7d be 9f 2c 28 3e
       -0.22347341 0.16867064 -0.24779026 0.16423272
000120 5d 7e 06 3e d8 71 3e 3e 70 27 37 be c1 df 9e be
       0.13134141 0.18598115 -0.17886138 -0.31030086
000130 4f f6 25 be fd e5 80 be ba 21 98 be 4c 0c bb bd
       -0.1620724 -0.25175467 -0.2971323 -0.09133205
000140 89 e1 95 be 9a 84 8b 3e 66 c2 87 3e aa 58 1e bc
       -0.29273632 0.27249604 0.26515502 -0.009664694
000150 85 98 29 3e 78 ac 54 bd c5 ec 9a 3e dc b3 91 be
       0.16562088 -0.05192229 0.30258766 -0.28457534
000160 b4 f4 a4 be 2e a6 d4 bd f8 1f 57 be e0 58 47 3c
       -0.32217944 -0.10383259 -0.21008289 0.012167186
000170 2b 48 47 be d8 b3 47 be d9 2e 13 3e bc 9f 94 3e
       -0.19461124 -0.19502199 0.1437334 0.29028118
000180 f8 68 e5 bd a3 9b 49 be 7f 0d 91 3e 22 5c a8 bc
       -0.11201662 -0.19688277 0.2833061 -0.020551745
000190 f5 ab bd 3e 08 be 82 3d 7f 07 1b bc dd 68 d7 3c
       0.37045255 0.06383902 -0.009462236 0.02629512
0001a0 46 c0 69 be c0 3d e6 3d 1e 2b a6 3e 92 f3 59 3e
       -0.22827253 0.11242247 0.3245477 0.21284321
0001b0 80 c5 02 3e 30 1c 0f bd 14 f0 68 be 3c df 74 3e
       0.12770653 -0.03493899 -0.22747833 0.23913282
0001c0 28 35 68 3d 00 9a 30 3e 7a 37 bf 3c 89 b1 72 3e
       0.05669132 0.17246246 0.023341883 0.23700537
0001d0 67 d2 3c be 01 60 c7 3d c9 b4 59 3e 11 74 a5 be
       -0.18439637 0.09735108 0.2126037 -0.32315114
0001e0 91 8c 98 3e cc 43 fd 3d 8b 71 1c 3e 0a 99 2c be
       0.29794744 0.12366447 0.15277688 -0.16855255
0001f0 57 54 69 bd cb a7 7c be 17 b5 2f be e8 1b 2a 3e
       -0.0569652 -0.24673383 -0.17158924 0.16612208
000200 7c 26 ec bd 0d 53 a0 3e c5 d9 2c be 5e 4e cb bd
       -0.11530778 0.31313363 -0.16879947 -0.09927057
000210 44 47 15 be 1d be 58 be 6e 11 a7 bd 88 55 99 be
       -0.14577967 -0.21166272 -0.08157621 -0.29948068
000220 c1 07 59 3d 04 05 1a 3e 4c 13 61 be 4d 31 a1 3e
       0.05298591 0.15040976 -0.21980017 0.31482926
000230 99 a0 40 be 15 cf 96 be 55 fa 5a be 04 29 db bd
       -0.18811263 -0.29454866 -0.21384557 -0.107011825
000240 87 0f 37 bd 3e 3f 29 3e b7 1b 32 3e 42 78 50 3e
       -0.044692542 0.16528031 0.17393385 0.20358375
000250 bb c1 5d be 4b 46 96 be 07 45 4e 3e c8 69 6b 3e
       -0.21655934 -0.29350504 0.2014352 0.22989571
000260 2c a0 15 3e 51 ab b4 3d 70 57 2e 3e 04 85 5f 3e
       0.14611882 0.088217385 0.17025542 0.21828085
000270 47 c8 5f be e5 9f a9 3e 68 24 e0 bd 84 11 59 3e
       -0.21853743 0.33129802 -0.10944444 0.21198088
000280 2e 62 e7 bd f4 79 91 be 62 fb 33 be 65 99 b7 3a
       -0.11298023 -0.28413355 -0.17576364 0.0014007507
000290 8d 5f a6 bd ab 2c b1 3e 7a f9 0a 3e 99 1a 4c 3e
       -0.081236936 0.3460439 0.1357173 0.19932021
0002a0 4f ab a8 3e 2a 12 09 bf a9 ec 25 bd b2 07 f6 bd
       0.32943198 -0.5354334 -0.0405089 -0.120131865
0002b0 db 4e 83 3e 64 37 bf b9 a4 e9 54 bd 40 44 c3 3d
       0.256461 -0.00036471628 -0.05198063 0.09534502
0002c0 c3 88 10 be bc 5a b9 3e 83 85 83 3b 97 06 9a 3e
       -0.1411467 0.36202037 0.0040137186 0.30083153
0002d0 4a 90 c7 be b4 b6 3b be 22 17 c2 3e 22 fa 30 be
       -0.3897727 -0.18331414 0.37908274 -0.17282918
0002e0 cf 57 89 be 1d 1c 33 3d b5 15 53 be 97 ce 28 3e
       -0.26824805 0.043727983 -0.2061375 0.16485058
0002f0 f1 0b c9 3e e9 d0 41 3e 73 27 50 3e 75 bc b9 3d
       0.39266923 0.18927349 0.20327549 0.090691485
000300 a3 b5 1e 3e 03 83 76 3e ba db ae be 4e d3 86 3e
       0.15498976 0.24073415 -0.34152013 0.26333088
000310 c9 05 a6 3c bf 03 47 be 00 fa f4 3d b5 06 85 3e
       0.02026643 -0.19435023 0.11961746 0.2598168
000320 20 9e 90 3e 55 d6 7d be 6f 0e ab 3e de be d5 3d
       0.2824564 -0.24788792 0.3340945 0.10436796
000330 ce 15 1d bd 1b fb 9d 3e c6 38 24 bd df c9 0a 3e
       -0.038350873 0.3085564 -0.040093206 0.1355357
000340 47 21 4c be 9c 14 dd 3d 8d 94 88 3e f4 23 a6 3e
       -0.1993457 0.107949466 0.26675835 0.32449305
000350 5b 34 14 be af bb 8d 3e 4b f3 02 3e b1 0c 65 3d
       -0.14473097 0.27682254 0.12788121 0.055920307
000360 74 1f fc bd 5e ce 92 be 2e 20 8b be 3b d7 e3 be
       -0.12310687 -0.2867307 -0.2717299 -0.44500145
000370 d4 52 fa 3c f0 a6 53 3e fe 22 0a be 00 08 5a 3e
       0.030557074 0.2066915 -0.13489911 0.21292114
000380 ba 9e d8 bc ad f4 a7 3e 40 68 35 be 2c ee 53 3e
       -0.026442874 0.3280386 -0.1771555 0.20696324
000390 1b 3f 8f bd 14 93 a6 3e e4 09 cc bd ef 04 a0 be
       -0.06994458 0.32534087 -0.09962824 -0.31253764
0003a0 0b 30 00 3e db b4 83 be 35 d9 12 3e d8 1a 67 be
       0.12518327 -0.2572392 0.1434067 -0.22568834
0003b0 3c 49 0c 3d 29 b7 7c 3e f7 d2 84 be 00 9c 78 3c
       0.03424953 0.24679245 -0.25942203 0.015173912
0003c0 77 27 45 be 62 87 8c be da 42 11 be dd 84 82 bc
       -0.19253336 -0.2744704 -0.14185658 -0.015932495
0003d0 78 12 f3 bd 77 77 09 3e de 9e 83 3e ed 58 e9 bc
       -0.11868757 0.13424478 0.25707144 -0.028484786
0003e0 2f 23 72 be 03 4f 2d 3e 46 ca 81 be 7d f9 18 be
       -0.23646234 0.16924672 -0.25349635 -0.14938922
0003f0 68 6c c4 bd 51 4a a8 3d fd 9a 1a bd e0 f2 d0 bb
       -0.09590989 0.082173 -0.037745465 -0.006376609

model.0.bias f4 [128]
000000 54 1a 99 be 5e 7a a8 3e 61 cf ed bd 9b 08 17 be
       -0.299029 0.3290586 -0.1161182 -0.14749376
000010 74 5a 36 bd 0f e0 a3 bd 32 72 82 3e 1d fc 73 be
       -0.044519857 -0.0800172 0.2547775 -0.23826642
000020 38 ec 26 3c 51 c4 39 3e 6d 78 c7 bd a0 e6 2f be
       0.010188155 0.18141295 -0.09739766 -0.1717782
000030 6e 24 22 3e c0 a5 5e be d7 0e e8 bd 8a b9 2a 3e
       0.1583421 -0.21742916 -0.113309555 0.1667234
000040 19 a6 e9 bb 78 84 36 3e a7 32 cc bd 76 50 8f be
       -0.007130396 0.1782397 -0.09970599 -0.27991074
000050 bc 31 76 be 2a 69 be 3d 26 8e 7c bc 1f 08 9c be
       -0.2404241 0.09297402 -0.01541475 -0.30474946
000060 02 b4 91 be ef e7 81 bd 27 e0 72 3e 73 34 2d be
       -0.28457648 -0.06343066 0.2371832 -0.16914539
000070 8a 5e 7f 3e d9 bb 8a 3e 68 30 9b 3e be 31 0b 3e
       0.24938408 0.2709644 0.3031037 0.13593194
000080 b0 40 92 3d 89 6e 35 3e 28 69 00 3e 33 6b 69 3e
       0.071412444 0.17717947 0.12540114 0.227948
000090 b9 53 2a 3e a3 a0 97 3e 14 5d 78 bd bc 7b f8 bd
       0.166335 0.29614744 -0.06063564 -0.121329755
0000a0 11 4d 8d 3e 27 76 8d 3d 59 10 5f 3d a4 93 93 3e
       0.2759786 0.069073014 0.05445895 0.28823578
0000b0 a0 50 46 be 85 b7 f0 3d 17 3e 43 bd 52 51 be 3d
       -0.19366693 0.117537536 -0.047666635 0.09292854
0000c0 fc 0e 1b 3e 3a 75 09 3d de 19 41 3d 51 d6 de 3d
       0.15142435 0.03355906 0.04714381 0.10880721
0000d0 3a 75 ab bc 50 fc 28 3e a0 28 91 37 da 26 24 be
       -0.020929921 0.165025 1.7304264e-05 -0.16030446
0000e0 57 b1 a7 bd 98 99 0a be 51 64 38 3e 23 1d 99 3d
       -0.08188122 -0.13535154 0.18007018 0.074762605
0000f0 18 1e 5f 3e 97 3f ec 3b 42 da 72 3e 8a c3 af 3e
       0.21788824 0.007209729 0.23716071 0.34328872
000100 ae 72 5a be 4d ef 28 be e6 5f 98 be e6 72 7f be
       -0.2133281 -0.16497536 -0.29760665 -0.24946174
000110 e2 3a 92 be 66 b9 1a 3c f4 1f 87 3e ce 9d b7 bd
       -0.2856055 0.0094436165 0.26391566 -0.08965646
000120 df 77 19 3e e5 a5 1a be 17 91 f5 bd 5b eb 2b be
       0.14987133 -0.15102346 -0.11990564 -0.16789
000130 18 05 99 be d0 aa 1c 3e 36 25 15 3e b9 1b 49 3e
       -0.298867 0.15299535 0.14564976 0.19639482
000140 84 75 1f be c6 c1 79 bb 9b fa 78 3c ed 19 63 3e
       -0.15572172 -0.0038109883 0.015196468 0.22177859
000150 a3 88 7a be 9b bf 41 3e 60 cd b1 3e f2 9f 7e be
       -0.24466185 0.18920748 0.34727 -0.24865702
000160 d5 e5 87 3d 21 a7 ad 3e aa 4b 02 3d 05 e2 fa 3d
       0.06635634 0.33916572 0.03181044 0.12250141
000170 85 d1 d5 3d bc 39 78 be bc 43 9f be 92 df 6b 3e
       0.10440353 -0.24240774 -0.31106365 0.23034504
000180 13 b6 5e 3e 42 65 ff bc 38 f8 6d 3e ea f5 3e 3e
       0.21749143 -0.031176213 0.23239219 0.18648496
000190 42 cc 7b be 68 a0 00 3d 83 c3 a1 bd 1c 40 23 3e
       -0.24589637 0.031402975 -0.07898619 0.15942425
0001a0 a4 78 2b bd 25 c5 8f bc 81 49 f5 bd 02 d7 8f 3e
       -0.0418631 -0.01755006 -0.119769104 0.28093725
0001b0 cf 3f ad 3e 19 a4 e8 bd c0 78 9a be 7a 04 83 3e
       0.33837745 -0.11359424 -0.3017025 0.25589353
0001c0 5d cf c6 bd 5f cc 1f bd 9e a4 95 3e 1b 36 f3 bd
       -0.0970752 -0.039013263 0.29227155 -0.11875554
0001d0 b6 a9 b0 3c b1 92 87 bc a2 aa 06 be c8 ef 54 bc
       0.0215653 -0.01654944 -0.13151029 -0.012996621
0001e0 cf d0 72 3e 97 65 8f 3e fb 6a b0 bc 1c 3a 87 be
       0.23712467 0.28007194 -0.021535387 -0.2641152
0001f0 aa e2 22 3d 96 72 3c be b3 d7 27 bc f2 0a 42 be
       0.039766945 -0.18403086 -0.010244298 -0.18949488

model.2.weight f4 [128, 128]
000000 30 3a 27 3d 46 da 8b bc 9d 57 2d bd 5b f0 8f bd
       0.040826976 -0.017071854 -0.042319883 -0.07028266
000010 be 6e 89 bd cd 3e 4a bc 81 cc b2 3a dd 55 71 bd
       -0.067105755 -0.012344074 0.0013641269 -0.058919776
000020 7d b5 b9 bc 51 75 ba 3d a2 9c e3 3d eb 00 ec be
       -0.022669548 0.091044076 0.1111386 -0.4609445
000030 ce ae 86 3d f4 90 75 3d 40 d4 05 bd 41 dc 2f 3c
       0.0657631 0.05995269 -0.03267312 0.010733665
000040 d7 39 94 3d a2 c9 56 bb 53 44 59 be 33 a9 ed 3c
       0.072375946 -0.003277399 -0.2121747 0.029011345
000050 b3 e5 b9 3b 73 e8 ae bd 77 b0 69 3d 01 4f d5 3c
       0.0056731342 -0.0854043 0.057053056 0.026038649
000060 a3 d8 12 3d a2 54 d2 3c 28 6b ab 3c cf 8f 97 3d
       0.035851132 0.025675122 0.02092512 0.07400476
000070 28 46 dd 3c 87 87 e6 3c e0 d6 9e bc 47 d4 99 bd
       0.027010992 0.028140796 -0.01938957 -0.07511192
000080 ec 27 55 3d 51 00 5f 3d 16 a7 88 3c 36 32 05 bd
       0.052040026 0.05444366 0.016681235 -0.032518588
000090 18 88 d9 bd e4 ae d9 bb fd 78 3e bc 11 f0 ae bd
       -0.10621661 -0.006643163 -0.011625526 -0.08541883
0000a0 69 c3 87 bd 91 89 88 3d 29 24 1c bd 86 1f 81 3d
       -0.066290684 0.06666864 -0.038120423 0.06304841
0000b0 7b 71 01 3c a0 d5 66 3d b5 84 84 bc 5e ed 0f be
       0.007900591 0.056356072 -0.01617656 -0.14055392
0000c0 53 e0 43 3d 87 62 81 3c fc 7a 87 bd d8 e7 e9 bd
       0.047821354 0.015794052 -0.06615254 -0.11421174
0000d0 8b a9 de 3c 06 66 95 3c dc a1 66 3c fe be 85 bd
       0.027180454 0.018237125 0.014076676 -0.065305695
0000e0 45 ca a4 bd d8 e1 1e bb 10 4b 29 bd 89 97 a5 bd
       -0.08046392 -0.00242435 -0.04133135 -0.08085544
0000f0 75 b1 45 3d b2 6e 97 3b 2f 42 f9 3d 3f bc 9e 3d
       0.04826494 0.00462135 0.12170827 0.07750749
000100 97 c9 b5 bc 7a 9b 1f bd 06 9d 26 3d 2f 80 ce 3c
       -0.022190852 -0.038966633 0.040677093 0.025207607
000110 a0 96 56 bd f8 6e 45 bd 50 95 ca 3d f1 a4 46 3d
       -0.05238974 -0.04820153 0.0989176 0.048497144
000120 e2 86 df bc ba 21 a6 bd 39 68 37 3d 56 48 95 3d
       -0.027285997 -0.081119016 0.04477713 0.072891876
000130 0e 7c ff 3a 40 57 6e bd 24 20 a3 3d 4d 2f 9b bc
       0.0019491927 -0.058188677 0.07965115 -0.018943453
000140 8a 46 30 bd 62 88 d2 bc 56 f3 6b 3c 39 a5 14 be
       -0.04303602 -0.025699798 0.0144012775 -0.14516152
000150 3c a3 e5 3c 9e 09 a9 3d 5c d8 93 3d 2b a7 82 3b
       0.028031938 0.082537875 0.07219002 0.003987213
000160 a4 93 aa 3d e1 30 da 3d 69 72 ab 3c dd e2 a1 bd
       0.083289415 0.10653854 0.020928578 -0.07904599
000170 91 d6 b3 bd 3f c6 38 3e e5 38 20 3e cd a7 df bd
       -0.0878116 0.18044375 0.15646704 -0.10920677
000180 a9 40 52 bd 43 ef ae bc 86 5b 17 3d 14 31 a4 bd
       -0.051331196 -0.021354323 0.036952518 -0.080171734
000190 23 72 94 bd c7 c4 09 3e 72 3a c2 bc 0d 4c 0d 3d
       -0.07248332 0.13453971 -0.02370951 0.034496356
0001a0 2c 1b 84 3c 72 5a d0 3c db c8 fe 3c 6e e6 63 3d
       0.016126238 0.025433753 0.031101635 0.055639677
0001b0 d7 f0 49 bc 26 39 b0 3c b1 14 1a bd 75 4f c1 bc
       -0.012325487 0.021511625 -0.03761739 -0.023597458
0001c0 3f 61 4e be 24 5e 53 bd dd e6 e2 bd 81 d4 f1 3d
       -0.20154284 -0.05160345 -0.1107919 0.1180811
0001d0 be 2f 15 bc b0 40 b5 3c 2d f2 08 be d4 a2 2a 3a
       -0.009105621 0.022125572 -0.13373633 0.00065092486
0001e0 5b 85 96 bd 72 d7 25 bd 40 6b f9 bd 34 14 6e bc
       -0.07349654 -0.040488668 -0.121786594 -0.014531184
0001f0 9e 6d 99 bc 95 c3 a8 bb a1 21 43 3d 56 ce 0c be
       -0.018729027 -0.0051502683 0.047639493 -0.13750586
000200 03 b3 a6 3d c3 5d 1f bd 37 67 72 3d 8a 82 60 be
       0.081396125 -0.038907778 0.059180465 -0.21924797
000210 3e 76 f0 3c 31 81 a6 3d a2 60 01 3e 8e 56 65 bd
       0.029353257 0.0813011 0.12634519 -0.055990748
000220 8b 9b 84 3b e7 45 f8 bb d7 03 6c bd ac ab 18 be
       0.0040468625 -0.0075766924 -0.05762085 -0.14909238
000230 5d bb e1 3d 35 33 77 bd ef 5d fe 3c 58 96 dd 3d
       0.11022065 -0.06035157 0.03105065 0.108196914
000240 f8 f1 d5 be 84 77 23 3d 24 83 54 3b ec c1 bf 3d
       -0.4178617 0.0399089 0.0032426799 0.093631595
000250 80 68 15 3e 9d f4 1d be 18 cb 9f 3d 20 47 a1 bc
       0.14590645 -0.15425344 0.07802409 -0.019687235
000260 d9 bd 00 3d 09 c3 01 3c 57 54 5d be d4 09 81 bd
       0.031431053 0.007920035 -0.21614204 -0.06300703
000270 ef db 5d 3d 28 f9 9f bd 1b 61 b4 bd 4c 32 b9 3d
       0.054164823 -0.07811195 -0.08807584 0.090427965
000280 b4 d6 da 3b 0d 19 3f 3c 1c 10 cf 3d c0 55 de 3d
       0.0066784266 0.011663687 0.101104945 0.10856199
000290 d3 59 ca bc 84 ec 02 3d 3d 1d 0e bd d8 1c 52 bd
       -0.024701035 0.03196384 -0.034695853 -0.05129704
0002a0 dd 7a 21 bb 15 c1 b1 bc d9 32 5f 3d ed 3b a1 bc
       -0.0024639883 -0.021698514 0.05449185 -0.019681895
0002b0 ed af 1b be f1 33 62 3d 05 29 8e ba de 15 66 be
       -0.15203829 0.055225316 -0.0010845965 -0.22469279
0002c0 56 01 0d bd 92 40 b5 bc e9 a9 85 3d 93 de d7 3d
       -0.034425102 -0.022125516 0.065265484 0.105404995
0002d0 c1 9b 91 3d ce e8 7d bc 9d 10 a6 3c 44 4e 1b be
       0.07109786 -0.0154973995 0.020271594 -0.15166575
0002e0 00 d1 80 3d 59 0a 82 bd d2 c2 09 3d 08 e8 e8 3d
       0.062898636 -0.0634963 0.03363306 0.113723814
0002f0 34 83 78 bc 12 a0 0b 3d b5 02 38 bd 23 b2 0e be
       -0.015168 0.0340882 -0.044924457 -0.13935141
000300 13 7a 6e 3d 8c 82 fa bd 19 5f dc ba c2 29 ba bd
       0.058221888 -0.12231931 -0.0016813009 -0.09089996
000310 9c 95 3f bd ef 71 1b 3c 67 a5 0e bc c0 cd 9c 3c
       -0.046773538 0.009487613 -0.008706427 0.019141078
000320 3d 36 23 bd 4f 7c 7b bb 32 56 97 bc 8b 8d cb bd
       -0.039846648 -0.0038373654 -0.018473718 -0.099391066
000330 83 ac 8b 3d a3 d6 e6 bc 1e 27 ba 3d b4 46 0c be
       0.068200134 -0.028178519 0.09089492 -0.13698846
000340 04 0c 23 3d dd ca 3f bc cd d5 f1 bc 6c d6 ed bc
       0.03980638 -0.011706081 -0.029520893 -0.029032908
000350 9f b6 24 be a5 1c 72 bb 66 52 8f bd 7a aa bb bd
       -0.1608529 -0.0036943343 -0.06998138 -0.09163375
000360 88 82 90 bd 76 ad 27 bb b3 c8 fa bc 0a e9 ca 3c
       -0.07056147 -0.0025585569 -0.030613279 0.024769325
000370 66 5c 35 3d 08 57 22 be 6a 83 38 bd 7b ee 4a 3c
       0.04427757 -0.15853512 -0.0450472 0.01238596
000380 e8 36 35 be 6b 1c 8b 3c a9 35 48 bd 60 8a 26 be
       -0.17696726 0.016981324 -0.0488793 -0.16263723
000390 cc 61 3d 3c d7 a4 3e 3d 26 08 e9 3d a4 c8 5d be
       0.011558961 0.046543922 0.11378507 -0.2165857
0003a0 a2 94 23 3d 7c fa 38 bd f8 92 84 3d ec 28 b2 3d
       0.03993667 -0.045160756 0.064733446 0.086992115
0003b0 6d e6 23 be c3 30 b5 3d 65 dc 57 3d ed d8 d2 3c
       -0.16005869 0.08847191 0.05270042 0.025738204
0003c0 6b 23 ac bd 56 a0 35 3b 11 f0 a8 bd 77 5a 89 bd
       -0.08405193 0.0027713976 -0.08248914 -0.06706708
0003d0 38 38 2b bd 3f 8f b9 3c 30 1e d8 bb 22 99 15 be
       -0.04180166 0.022651313 -0.0065953955 -0.14609197
0003e0 ca 1a 3e bd 54 74 a4 bd f5 dc db bd fd b1 d5 3d
       -0.046412267 -0.0803 -0.107355036 0.10434339
0003f0 6b 55 24 bd 9c b8 c7 bc 8e bd 09 3e b9 82 1b bd
       -0.040120523 -0.02438002 0.13451216 -0.037966464

model.2.bias f4 [128]
000000 79 64 54 3d c0 49 97 bc 5f a1 57 bd f0 e3 79 3d
       0.05185363 -0.018467784 -0.05264413 0.061008394
000010 a4 59 eb 3c 2a 48 93 3d db f4 6b bc de 23 86 bd
       0.028729267 0.071914986 -0.01440164 -0.0654981
000020 26 0f b0 bd 24 3e 4b bc cb 5d 92 bd a3 53 2c bd
       -0.08596639 -0.012404952 -0.07146796 -0.04207195
000030 64 7d 52 3c ee 81 c6 bc d0 1c 28 bc 2b 98 fd 3c
       0.012847278 -0.024231877 -0.010260776 0.030956348
000040 04 35 99 bd 1e bb 56 3d f9 0a c0 3d d1 31 25 bd
       -0.07480815 0.052424543 0.09377093 -0.04033071
000050 53 d3 8f bd 9e eb 6f bd c7 37 6f 3d 55 92 8e bd
       -0.07022729 -0.05857431 0.058402803 -0.06961504
000060 4f 31 2d 3d 3c 85 0f bd 0d b4 96 bd 86 85 18 3d
       0.042283352 -0.03503917 -0.07358561 0.037236713
000070 0a a5 25 3c 32 bf 90 bd fc de 68 3d 13 2a 84 3d
       0.010110149 -0.070677176 0.05685328 0.064533375
000080 c6 46 0f bd 62 10 3f bd 3b bf 7c 3c fd 5d 45 3d
       -0.034979604 -0.046646483 0.015426452 0.048185337
000090 16 2c 83 bc 3c 15 bb bd 71 02 71 bd 7a d0 c5 3d
       -0.016012233 -0.091349095 -0.05884022 0.096589044
0000a0 6b 30 36 3d 33 7e 0b bb 3a 17 b9 3d 9c b5 2e 3c
       0.04447977 -0.0021284937 0.09037633 0.010663416
0000b0 d8 4e cd 3d 26 5e 86 bc 2d ba a3 bd bb 6d 5b bd
       0.10024804 -0.016402315 -0.079944946 -0.053571444
0000c0 9f a0 9d 3d 74 51 85 3c ee ce 1e bd c8 35 e8 bc
       0.07696652 0.016274191 -0.038771562 -0.028345957
0000d0 79 11 94 3c 0b 6b 3d bd 07 c8 37 bd f0 d1 e7 3d
       0.018074738 -0.046244662 -0.044868495 0.11319339
0000e0 c3 ce ac bd a2 a7 83 bd f4 d4 15 3b 28 55 7f 3d
       -0.08437874 -0.06428458 0.0022862526 0.06233707
0000f0 3d 58 e6 bd 49 3d 31 bd 06 9f 2a bd ec 38 ff 3c
       -0.11247299 -0.043271337 -0.041655563 0.031155072
000100 c6 1d 29 3d 08 f8 02 bd 6b 84 95 3d 6d 5f 10 3c
       0.04128816 -0.031974822 0.07300647 0.008811814
000110 e9 0a c5 bc c8 49 5c 3c 25 78 06 3d 73 25 b1 3d
       -0.024053054 0.013445325 0.032829423 0.08649721
000120 78 84 29 3d 17 46 84 3d fb fd 0d bd 34 5d 03 bd
       0.041386098 0.06458681 -0.034666043 -0.032071307
000130 a1 68 95 bd ec a3 e0 3d b7 6a e9 bc ad 06 34 3d
       -0.07295347 0.109687656 -0.028493268 0.04395168
000140 50 e0 59 bc 17 b8 8c 3d ad 3e 01 3e 17 39 85 3d
       -0.013298109 0.0687105 0.12621565 0.0650503
000150 45 60 8f bd 78 cf 87 bd 3c 57 8e 3d 29 13 3d 3d
       -0.07000784 -0.066313684 0.069502324 0.04616085
000160 bf eb b1 3d 5e 2d 11 bd db a7 88 3d 50 7d ac 3d
       0.08687543 -0.035443656 0.06672641 0.08422339
000170 0c 4d 7f 3d 74 aa ab 3d 3b 93 8f bd f7 b3 8f 3d
       0.062329337 0.08382121 -0.07010504 0.070167474
000180 71 3a 6e 3c 5a f4 2d bd d5 d7 b1 3d c6 51 ea bc
       0.014540301 -0.04246936 0.08683745 -0.028603446
000190 08 df ed 3d 52 05 b7 3d 3d 5a d3 3b e7 5c d7 bc
       0.116148055 0.08936562 0.006449966 -0.026289416
0001a0 ff b5 95 bd c4 79 b6 3c d1 16 92 bc 0e 73 85 3c
       -0.073101036 0.02227486 -0.017833145 0.016290214
0001b0 4f 1b 73 bd cf eb ed 3c 09 d6 ae bd 4a 68 ad 3d
       -0.059352215 0.029043106 -0.08536918 0.08467157
0001c0 c9 c3 84 bb 34 98 23 bc ff 5e b6 3d f0 f4 85 bd
       -0.0040516597 -0.0099850185 0.08904838 -0.06540859
0001d0 76 f0 f4 3a 91 08 cf bd 8f 24 1a bd 07 19 bc 3d
       0.0018687386 -0.10109056 -0.03763252 0.09184461
0001e0 74 b2 88 bd 9e bd 50 bd 77 1e a7 bc 1e 55 00 bd
       -0.06674662 -0.050962083 -0.020400269 -0.031331174
0001f0 90 61 b1 3d 68 9c 81 bc 19 ef 9f 3c 14 aa a8 3d
       0.08661187 -0.01582165 0.01952319 0.08235565

model.4.weight f4 [50, 128]
000000 92 b2 88 3d 75 ab ab bd 6f 9b 95 3d 35 1f 71 3d
       0.066746846 -0.08382312 0.07305037 0.058867652
000010 c3 14 93 bc 13 aa a6 bd 78 db 90 3c 0d 3b 97 bd
       -0.017954236 -0.08137908 0.017682776 -0.0738431
000020 fa 60 62 3b 6f b5 8c 3d ed 0a a3 bd ec 8b 82 3d
       0.0034542666 0.06870543 -0.07961068 0.06374344
000030 9c 9b a7 bb a1 c9 9a bd 64 fa ba bc d1 a5 84 3d
       -0.0051149856 -0.07557989 -0.022824474 0.064769395
000040 d0 1c 09 bd 0e 63 6c bc 1b db 89 3d a7 f6 0d bd
       -0.033474743 -0.014427913 0.06731244 -0.034659054
000050 65 3c 0f 3d 8d 0d 06 be 20 39 48 3c 32 23 bc 3c
       0.034969706 -0.13091107 0.012220651 0.022966001
000060 ff fe 96 bd 1a 62 95 bc 92 62 ac 3d 32 59 7f bc
       -0.073728554 -0.018235255 0.08417238 -0.015585231
000070 1a 42 51 be ff 1a 19 3d 2c 0b 2b bd 23 45 c4 3c
       -0.20435372 0.03737926 -0.0417587 0.023958748
000080 9b ed d7 bd 6f a7 79 3d 33 55 7e 3d d8 ad 9f 3d
       -0.105433665 0.060950693 0.06209297 0.0779683
000090 33 1f cb 3c 4c a1 51 be c0 d8 32 bc 1c a8 76 bd
       0.02479515 -0.20471686 -0.010915935 -0.060218915
0000a0 50 27 5c 3d 73 84 50 3d 2d 47 ac 3d 58 b7 1d 3d
       0.05374843 0.050907563 0.08412013 0.03850493
0000b0 ae 0e 9d 3b f1 41 98 3d 12 05 7f 3d e3 34 cb bd
       0.0047930097 0.07434452 0.062260695 -0.09922197
0000c0 9c 5f ce bc 0c 57 e3 3d aa 41 21 3e 79 67 b0 3d
       -0.025192074 0.11100587 0.15747705 0.08613486
0000d0 55 c1 79 3d 68 62 93 bd f9 77 33 3d 27 e7 7a ba
       0.06097539 -0.07196504 0.043815587 -0.00095711875
0000e0 91 3e 22 3d 3b 4f 5f be 97 5e 1a 3e 94 be 10 3d
       0.03961045 -0.21807568 0.15075146 0.035338
0000f0 10 ac c7 bd 77 33 a4 bb d5 63 f6 3d 94 e0 cd 3d
       -0.09749615 -0.005011018 0.1203076 0.100526005
000100 3b 55 65 bd 9b fd 94 bc 9a 32 f4 bc 74 26 fe 3d
       -0.055989485 -0.018187335 -0.029809285 0.12409678
000110 88 2c 99 bd 3d 5f de 3d c4 b4 a4 bd 36 f5 53 bc
       -0.07479197 0.10858009 -0.08042291 -0.012936881
000120 f9 b2 74 3d 1b 51 48 bc 18 16 c6 bd a5 ec 57 bd
       0.059740994 -0.012226368 -0.09672183 -0.052715916
000130 0b 75 93 bd 7f 27 42 3e 6d 5e e8 3d d6 61 48 3d
       -0.072000585 0.18960379 0.11346135 0.04892143
000140 48 a6 49 bd 1e 47 05 bc bf e9 84 3d 9f 5b 84 3d
       -0.049230844 -0.008134631 0.06489896 0.06462788
000150 63 07 47 bd 80 72 29 3e cf 80 13 3d 12 ae 86 3d
       -0.04859103 0.16547585 0.036011513 0.0657617
000160 0a 83 15 bd 2b f1 82 3d dc 7b 30 be 7b 95 96 3d
       -0.03650192 0.063936554 -0.17234749 0.0735273
000170 ee d8 06 bd 8f 0a 2e bd 01 3d 90 3d 17 d6 b5 3d
       -0.032921724 -0.04249054 0.070428856 0.08878725
000180 b8 1c 8a 3d 51 0a 5c bd eb 65 01 3e 60 3c e0 3c
       0.06743759 -0.053720776 0.12636535 0.027372539
000190 cd f3 a8 bd be 35 2a be 09 9d 3b 3d e2 bd 26 bd
       -0.08249626 -0.16622064 0.045804057 -0.04070843
0001a0 ef a0 85 bc f0 50 e1 bd 24 77 b0 bd e8 1d 0b bd
       -0.01631209 -0.11001766 -0.08616474 -0.033964068
0001b0 b7 07 c0 bd 27 45 82 bd c7 33 81 bd 8b 0a 4e bc
       -0.093764715 -0.06360846 -0.06308704 -0.012575756
0001c0 6a 5d 07 be 86 0a 8c bd 13 67 95 3a d4 50 f1 bd
       -0.13219228 -0.06837945 0.0011398516 -0.11782995
0001d0 8c 7f f9 3c 86 88 44 3d e6 18 ae 3d 2a 0a af bd
       0.030456327 0.04798176 0.08500843 -0.085468605
0001e0 86 8f 78 bc 51 38 0c 3e 13 1c 01 bd ad 72 25 3c
       -0.015170937 0.13693358 -0.031520914 0.010098142
0001f0 07 d3 73 3d 0a 1d 3d 3d 16 09 2a 3d 6e 93 01 bb
       0.059527423 0.046170272 0.04151257 -0.0019771713
000200 a4 9c 3e 3d e0 45 94 bc bb 96 53 3d 9a 36 93 bd
       0.046536103 -0.018099725 0.05165742 -0.07188149
000210 09 25 4d 3d ee 86 90 bd a1 b2 e3 3a b7 cc 87 3d
       0.050084148 -0.07056986 0.0017371961 0.06630843
000220 3e d8 b5 bb 83 19 f7 3c c4 26 44 3d 46 a6 12 3b
       -0.0055494597 0.030163532 0.047888532 0.0022376939
000230 c5 ca 1a 3d a4 c6 30 bd 85 ce cd 3c dc 23 cf bc
       0.037791032 -0.04315819 0.02512289 -0.025285654
000240 ca 93 87 bd 9b cd 23 bd fc 57 3e 3d 4a 47 9e 3c
       -0.066199854 -0.039991003 0.046470627 0.019321103
000250 b1 6c e7 3c d7 a8 a0 3d 04 f0 c0 bc a7 66 b1 bc
       0.02825007 0.07844704 -0.023551948 -0.021655394
000260 c1 40 6e bc 19 88 0f 39 d3 23 19 3d 60 20 6a bd
       -0.014541806 0.00013688243 0.03738768 -0.05715978
000270 8c 04 ca bb 8c cd 26 3d e9 4e 7b bd b6 a3 3e bd
       -0.006165093 0.04072337 -0.06135455 -0.046542846
000280 3a d4 32 bd 3f a6 54 3d ce dc 91 bd 2c 1b 82 bd
       -0.043659426 0.051916357 -0.07122193 -0.06352839
000290 7a 40 0a 3d 9a ea c0 3c be 45 d6 3c 50 90 80 3c
       0.033752896 0.023549367 0.026156303 0.015693814
0002a0 35 2c b4 3d 4a c4 ab bc 97 3f 44 3d 5d a8 d2 ba
       0.08797494 -0.020967621 0.047912207 -0.0016071905
0002b0 75 79 99 bc 90 a1 06 3d 56 ca 19 bd d7 4a ba bc
       -0.018734673 0.03286892 -0.03754648 -0.022740765
0002c0 78 e1 b1 bd 35 03 20 bd 2e 69 05 bc 27 7e 33 3d
       -0.08685583 -0.03906556 -0.008142753 0.04382148
0002d0 c4 04 74 3d 5d 6e df 3c 93 c4 49 bd 73 75 8d 3d
       0.059574857 0.027274305 -0.049259733 0.06907167
0002e0 15 d4 ba bb 58 d4 78 3d 0a 53 25 3d a6 38 67 bd
       -0.0057015517 0.06074938 0.040362395 -0.05645051
0002f0 59 8f f9 bb ef d8 4d 3d 89 e8 ad bc b8 89 06 bd
       -0.0076159653 0.050255712 -0.021229045 -0.032846183
000300 3a d1 92 3c b0 09 7d bd 70 e7 43 bd 50 08 e6 3c
       0.017922033 -0.061776817 -0.047828138 0.028080136
000310 61 74 b5 bd a7 41 c3 3c 29 a6 2e 3d 85 9d 09 3d
       -0.08860088 0.023835016 0.04263893 0.033597488
000320 87 9f 07 bd a8 0d a0 bc fe c4 a1 bd 92 12 89 bc
       -0.03311112 -0.019537762 -0.078989014 -0.016732488
000330 f1 06 53 bd 0c 21 03 3d 47 a5 ac 3d d6 e4 6b bd
       -0.05152029 0.032013938 0.08429962 -0.05759128
000340 93 49 c8 3c 67 bb 59 bd c1 08 81 3d e4 13 11 3d
       0.024449145 -0.053157236 0.06300498 0.03541936
000350 c7 2a cf 3a 6d 24 a9 bd f9 63 88 bd c4 70 51 bd
       0.0015805595 -0.08258901 -0.06659693 -0.051132932
000360 ea 27 78 3d cb 92 06 bd 49 f0 a7 3c 3c 6e a1 3d
       0.06058494 -0.032854836 0.02050032 0.07882354
000370 b9 81 15 3d ed 2a 57 bd cb 6b 5b 3c 0f 8d 1d 3d
       0.036500666 -0.05253117 0.013392399 0.038464602
000380 11 a4 aa bc ef b2 d9 38 76 5a c0 bc 81 32 33 bd
       -0.020830186 0.00010380695 -0.023480635 -0.043749336
000390 29 97 45 3c 02 2a bb bd 07 94 8c 3c 1d dc 1b 3d
       0.012059965 -0.09138872 0.017160429 0.038051713
0003a0 40 85 87 3b 00 c5 f3 ba 28 45 6e bb e8 77 fb 3c
       0.0041357577 -0.0018598139 -0.0036357138 0.030696824
0003b0 45 cf fb bc c1 58 02 bb 7f dc c8 3c b9 da b8 3d
       -0.030738482 -0.0019889327 0.024519203 0.09026093
0003c0 4c 62 91 bc f6 6d a1 bd 9a 81 f3 bb 20 38 9e 3c
       -0.017747067 -0.078823015 -0.007431221 0.019313872
0003d0 ed 41 f4 3c b6 e0 45 bd 6f 32 c4 3b 11 ca 4a 3c
       0.029816592 -0.048310004 0.0059874575 0.012377278
0003e0 98 df 7e 3d 43 59 83 3c a9 78 2b 3d 0a 14 db bc
       0.062224954 0.016033774 0.041863117 -0.026742954
0003f0 2f 8f 6d 3d 65 9d b7 bc de 2a c3 3d 1f 50 a4 3c
       0.05799788 -0.022413919 0.09529661 0.020057736

model.4.bias f4 [50]
000000 2f 1f b4 3d 64 fb 0f 3d 91 f3 c9 3d 15 bb df 3b
       0.0879501 0.035151854 0.0986091 0.006827722
000010 d6 06 e6 3c 6d a1 8a bd 6f 91 b7 3c 44 fa 14 ba
       0.028079432 -0.06769071 0.022408215 -0.00056830444
000020 b1 22 00 3d b7 39 eb bb 72 69 37 3c 7a a7 bc 3d
       0.031283084 -0.007178511 0.011194574 0.09211631
000030 e0 03 82 3d 3b 17 86 3d 2a e1 6a 3d 28 e9 2e 3c
       0.06348395 0.065473996 0.05734364 0.010675706
000040 3e 2c 74 bd f3 ae 64 3c a7 91 4b bd dc dc 59 3c
       -0.059612505 0.013957727 -0.04969945 0.013297286
000050 2c 29 0e 3c 57 be 7e bd b8 99 b2 3d b0 3a c8 bc
       0.008676808 -0.06219324 0.08720726 -0.024442047
000060 3f da 92 bb c1 14 48 bd 54 76 93 3d aa 6c 1d bd
       -0.0044815834 -0.048847917 0.07200304 -0.03843371
000070 be c2 3f 3d 0b 6e a2 3c d1 30 b6 3d ae 3d f2 bc
       0.04681658 0.019827863 0.0889603 -0.029570427
000080 42 ac 98 3d 04 28 9b 3d f7 04 d0 bc 70 41 02 bd
       0.074547306 0.07575992 -0.025392992 -0.031800687
000090 69 ad 54 3c c0 96 19 3d f9 e9 b4 3c d5 0a 28 3d
       0.012980797 0.037497282 0.022084223 0.041025955
0000a0 f8 27 26 bd 23 c9 d0 3d 46 cf e9 bc c3 77 2c 3d
       -0.04056546 0.10194614 -0.028541218 0.0421064
0000b0 0e 7b 5b 3d b2 43 87 bb 1f c1 af bd ed d5 38 3d
       0.05358415 -0.004127943 -0.08581757 0.04512589
0000c0 3f 83 a9 3d e7 3b 0f bd
       0.08276986 -0.034969237
